…
2026-03-30 22:55:46,389 INFO: 自动微调 [inst_retired/cnn]: batch_size=32, cnn_hidden=64, cnn_out=128, direction_lambda=0.5, dropout=0.1, epochs=180, grad_clip=1.0, huber_delta=0.05, log_target=False, lr=0.0005, mlp_hidden=128, noise_std=0.005, pair_swap=False, patience=50, warmup_epochs=15, weight_decay=0.0001
2026-03-30 22:55:46,389 INFO: 加载数据...
2026-03-30 22:55:46,392 INFO:   加载 O1-g_vs_O3-g: 174 样本
2026-03-30 22:55:46,393 INFO:   加载 O2-bolt_vs_O2-bolt-opt: 174 样本
2026-03-30 22:55:46,395 INFO:   加载 O3-bolt_vs_O3-bolt-opt: 174 样本
2026-03-30 22:55:46,397 INFO: 总样本数: 522  序列长度 T=60  特征维度 D=6
2026-03-30 22:55:46,398 INFO: 训练集: 366  验证集: 78  测试集: 78
2026-03-30 22:55:46,532 INFO: 模型类型: cnn
2026-03-30 22:55:46,532 INFO: 
模型参数: 104,833
2026-03-30 22:55:46,532 INFO: SiameseMicroPerf(
  (backbone): CNNBackbone(
    (conv1): Conv1d(6, 64, kernel_size=(3,), stride=(1,), padding=(1,))
    (bn1): BatchNorm1d(64, eps=1e-05, momentum=0.1, affine=True, track_running_stats=True)
    (conv2): Conv1d(64, 64, kernel_size=(3,), stride=(1,), padding=(1,))
    (bn2): BatchNorm1d(64, eps=1e-05, momentum=0.1, affine=True, track_running_stats=True)
    (conv3): Conv1d(64, 128, kernel_size=(3,), stride=(1,), padding=(1,))
    (bn3): BatchNorm1d(128, eps=1e-05, momentum=0.1, affine=True, track_running_stats=True)
    (dropout): Dropout(p=0.1, inplace=False)
    (res_proj): Conv1d(64, 128, kernel_size=(1,), stride=(1,))
  )
  (pool): AttentionPooling(
    (attention): Linear(in_features=128, out_features=1, bias=False)
  )
  (mlp): Sequential(
    (0): Linear(in_features=384, out_features=128, bias=True)
    (1): ReLU()
    (2): Dropout(p=0.1, inplace=False)
    (3): Linear(in_features=128, out_features=64, bias=True)
    (4): ReLU()
    (5): Dropout(p=0.1, inplace=False)
    (6): Linear(in_features=64, out_features=1, bias=True)
  )
)
2026-03-30 22:55:47,136 INFO: 模型保存路径: checkpoints/cnn_best_inst.pt
2026-03-30 22:55:47,136 INFO: 配置保存路径: /home/ssy/Siamese-MicroPerf/configs/cnn_best_inst.json
2026-03-30 22:55:47,137 INFO: 
开始训练 (180 epochs, Huber δ=0.05, patience=50)...
2026-03-30 22:55:47,137 INFO: Epoch   Train Loss   Val Loss    Val MAE    LR          Status
2026-03-30 22:55:47,137 INFO: ----------------------------------------------------------------------
…
