…
ding=learnable, warmup_epochs=10, weight_decay=0.0001
2026-03-30 19:23:34,439 INFO: 加载数据...
2026-03-30 19:23:34,448 INFO:   加载 O1-g_vs_O3-g: 174 样本
2026-03-30 19:23:34,456 INFO:   加载 O2-bolt_vs_O2-bolt-opt: 174 样本
2026-03-30 19:23:34,472 INFO:   加载 O3-bolt_vs_O3-bolt-opt: 174 样本
2026-03-30 19:23:34,474 INFO: 总样本数: 522  序列长度 T=60  特征维度 D=6
2026-03-30 19:23:34,476 INFO: 训练集: 366  验证集: 78  测试集: 78
2026-03-30 19:23:34,617 INFO: 模型类型: transformer
2026-03-30 19:23:34,617 INFO: 
模型参数: 197,825
2026-03-30 19:23:34,617 INFO: SiameseTransformerMicroPerf(
  (backbone): TransformerBackbone(
    (input_proj): Linear(in_features=6, out_features=64, bias=True)
    (pos_encoder): LearnablePositionalEncoding(
      (dropout): Dropout(p=0.1, inplace=False)
    )
    (transformer_encoder): TransformerEncoder(
      (layers): ModuleList(
        (0-2): 3 x TransformerEncoderLayer(
          (self_attn): MultiheadAttention(
            (out_proj): NonDynamicallyQuantizableLinear(in_features=64, out_features=64, bias=True)
          )
          (linear1): Linear(in_features=64, out_features=256, bias=True)
          (dropout): Dropout(p=0.1, inplace=False)
          (linear2): Linear(in_features=256, out_features=64, bias=True)
          (norm1): LayerNorm((64,), eps=1e-05, elementwise_affine=True)
          (norm2): LayerNorm((64,), eps=1e-05, elementwise_affine=True)
          (dropout1): Dropout(p=0.1, inplace=False)
          (dropout2): Dropout(p=0.1, inplace=False)
        )
      )
      (norm): LayerNorm((64,), eps=1e-05, elementwise_affine=True)
    )
  )
  (pool): AttentionPooling(
    (attention): Linear(in_features=64, out_features=1, bias=False)
  )
  (mlp): Sequential(
    (0): Linear(in_features=192, out_features=64, bias=True)
    (1): ReLU()
    (2): Dropout(p=0.1, inplace=False)
    (3): Linear(in_features=64, out_features=32, bias=True)
    (4): ReLU()
    (5): Dropout(p=0.1, inplace=False)
    (6): Linear(in_features=32, out_features=1, bias=True)
  )
)
2026-03-30 19:23:35,278 INFO: 模型保存路径: checkpoints/transformer_best_inst.pt
2026-03-30 19:23:35,279 INFO: 配置保存路径: /home/ssy/Siamese-MicroPerf/configs/transformer_best_inst.json
2026-03-30 19:23:35,279 INFO: 
开始训练 (220 epochs, Huber δ=1.0, patience=30)...
2026-03-30 19:23:35,279 INFO: Epoch   Train Loss   Val Loss    Val MAE    LR          Status
2026-03-30 19:23:35,279 INFO: ----------------------------------------------------------------------
…
