…
2026-03-30 21:33:31,716 INFO: 加载数据...
2026-03-30 21:33:31,718 INFO:   加载 O1-g_vs_O3-g: 163 样本
2026-03-30 21:33:31,720 INFO:   加载 O2-bolt_vs_O2-bolt-opt: 165 样本
2026-03-30 21:33:31,722 INFO:   加载 O3-bolt_vs_O3-bolt-opt: 161 样本
2026-03-30 21:33:31,724 INFO: 总样本数: 489  序列长度 T=60  特征维度 D=6
2026-03-30 21:33:31,726 INFO: 已启用 log-target 变换: Y → log(Y)
2026-03-30 21:33:31,727 INFO: pair-swap 增强后训练集: 686 样本
2026-03-30 21:33:31,727 INFO: 训练集: 686  验证集: 73  测试集: 73
2026-03-30 21:33:31,879 INFO: 模型类型: cnn
2026-03-30 21:33:31,880 INFO: 
模型参数: 414,465
2026-03-30 21:33:31,880 INFO: SiameseMicroPerf(
  (backbone): CNNBackbone(
    (conv1): Conv1d(6, 128, kernel_size=(3,), stride=(1,), padding=(1,))
    (bn1): BatchNorm1d(128, eps=1e-05, momentum=0.1, affine=True, track_running_stats=True)
    (conv2): Conv1d(128, 128, kernel_size=(3,), stride=(1,), padding=(1,))
    (bn2): BatchNorm1d(128, eps=1e-05, momentum=0.1, affine=True, track_running_stats=True)
    (conv3): Conv1d(128, 256, kernel_size=(3,), stride=(1,), padding=(1,))
    (bn3): BatchNorm1d(256, eps=1e-05, momentum=0.1, affine=True, track_running_stats=True)
    (dropout): Dropout(p=0.25, inplace=False)
    (res_proj): Conv1d(128, 256, kernel_size=(1,), stride=(1,))
  )
  (pool): AttentionPooling(
    (attention): Linear(in_features=256, out_features=1, bias=False)
  )
  (mlp): Sequential(
    (0): Linear(in_features=768, out_features=256, bias=True)
    (1): ReLU()
    (2): Dropout(p=0.25, inplace=False)
    (3): Linear(in_features=256, out_features=128, bias=True)
    (4): ReLU()
    (5): Dropout(p=0.25, inplace=False)
    (6): Linear(in_features=128, out_features=1, bias=True)
  )
)
2026-03-30 21:33:32,535 INFO: 模型保存路径: checkpoints/cnn_best_time.pt
2026-03-30 21:33:32,535 INFO: 配置保存路径: /home/ssy/Siamese-MicroPerf/configs/cnn_best_time.json
2026-03-30 21:33:32,535 INFO: 
开始训练 (180 epochs, Huber δ=0.01, patience=50)...
2026-03-30 21:33:32,535 INFO: Epoch   Train Loss   Val Loss    Val MAE    LR          Status
2026-03-30 21:33:32,536 INFO: ----------------------------------------------------------------------
…
