…
2026-03-31 19:24:43,569 INFO:   加载 O1-g_vs_O3-g: 163 样本
2026-03-31 19:24:43,570 INFO:   加载 O2-bolt_vs_O2-bolt-opt: 165 样本
2026-03-31 19:24:43,572 INFO:   加载 O3-bolt_vs_O3-bolt-opt: 161 样本
2026-03-31 19:24:43,574 INFO: 总样本数: 489  序列长度 T=60  特征维度 D=6
2026-03-31 19:24:43,575 INFO: 已启用 log-target 变换: Y → log(Y)
2026-03-31 19:24:43,576 INFO: pair-swap 增强后训练集: 686 样本
2026-03-31 19:24:43,576 INFO: 训练集: 686  验证集: 73  测试集: 73
2026-03-31 19:24:43,716 INFO: 模型类型: transformer
2026-03-31 19:24:43,716 INFO: 
模型参数: 197,825
2026-03-31 19:24:43,716 INFO: SiameseTransformerMicroPerf(
  (backbone): TransformerBackbone(
    (input_proj): Linear(in_features=6, out_features=64, bias=True)
    (pos_encoder): LearnablePositionalEncoding(
      (dropout): Dropout(p=0.1, inplace=False)
    )
    (transformer_encoder): TransformerEncoder(
      (layers): ModuleList(
        (0-2): 3 x TransformerEncoderLayer(
          (self_attn): MultiheadAttention(
            (out_proj): NonDynamicallyQuantizableLinear(in_features=64, out_features=64, bias=True)
          )
          (linear1): Linear(in_features=64, out_features=256, bias=True)
          (dropout): Dropout(p=0.1, inplace=False)
          (linear2): Linear(in_features=256, out_features=64, bias=True)
          (norm1): LayerNorm((64,), eps=1e-05, elementwise_affine=True)
          (norm2): LayerNorm((64,), eps=1e-05, elementwise_affine=True)
          (dropout1): Dropout(p=0.1, inplace=False)
          (dropout2): Dropout(p=0.1, inplace=False)
        )
      )
      (norm): LayerNorm((64,), eps=1e-05, elementwise_affine=True)
    )
  )
  (pool): AttentionPooling(
    (attention): Linear(in_features=64, out_features=1, bias=False)
  )
  (mlp): Sequential(
    (0): Linear(in_features=192, out_features=64, bias=True)
    (1): ReLU()
    (2): Dropout(p=0.1, inplace=False)
    (3): Linear(in_features=64, out_features=32, bias=True)
    (4): ReLU()
    (5): Dropout(p=0.1, inplace=False)
    (6): Linear(in_features=32, out_features=1, bias=True)
  )
)
2026-03-31 19:24:44,495 INFO: 模型保存路径: checkpoints/trans_best_time.pt
2026-03-31 19:24:44,496 INFO: 配置保存路径: /home/ssy/Siamese-MicroPerf/configs/trans_best_time.json
2026-03-31 19:24:44,496 INFO: 
开始训练 (400 epochs, Huber δ=1.0, patience=80)...
2026-03-31 19:24:44,496 INFO: Epoch   Train Loss   Val Loss    Val MAE    LR          Status
2026-03-31 19:24:44,496 INFO: ----------------------------------------------------------------------
…
