…
2026-03-30 21:07:57,610 INFO: 加载数据...
2026-03-30 21:07:57,612 INFO:   加载 O1-g_vs_O3-g: 163 样本
2026-03-30 21:07:57,614 INFO:   加载 O2-bolt_vs_O2-bolt-opt: 165 样本
2026-03-30 21:07:57,615 INFO:   加载 O3-bolt_vs_O3-bolt-opt: 161 样本
2026-03-30 21:07:57,618 INFO: 总样本数: 489  序列长度 T=60  特征维度 D=6
2026-03-30 21:07:57,619 INFO: 已启用 log-target 变换: Y → log(Y)
2026-03-30 21:07:57,620 INFO: pair-swap 增强后训练集: 686 样本
2026-03-30 21:07:57,620 INFO: 训练集: 686  验证集: 73  测试集: 73
2026-03-30 21:07:57,751 INFO: 模型类型: cnn
2026-03-30 21:07:57,751 INFO: 
模型参数: 104,833
2026-03-30 21:07:57,751 INFO: SiameseMicroPerf(
  (backbone): CNNBackbone(
    (conv1): Conv1d(6, 64, kernel_size=(3,), stride=(1,), padding=(1,))
    (bn1): BatchNorm1d(64, eps=1e-05, momentum=0.1, affine=True, track_running_stats=True)
    (conv2): Conv1d(64, 64, kernel_size=(3,), stride=(1,), padding=(1,))
    (bn2): BatchNorm1d(64, eps=1e-05, momentum=0.1, affine=True, track_running_stats=True)
    (conv3): Conv1d(64, 128, kernel_size=(3,), stride=(1,), padding=(1,))
    (bn3): BatchNorm1d(128, eps=1e-05, momentum=0.1, affine=True, track_running_stats=True)
    (dropout): Dropout(p=0.1, inplace=False)
    (res_proj): Conv1d(64, 128, kernel_size=(1,), stride=(1,))
  )
  (pool): AttentionPooling(
    (attention): Linear(in_features=128, out_features=1, bias=False)
  )
  (mlp): Sequential(
    (0): Linear(in_features=384, out_features=128, bias=True)
    (1): ReLU()
    (2): Dropout(p=0.1, inplace=False)
    (3): Linear(in_features=128, out_features=64, bias=True)
    (4): ReLU()
    (5): Dropout(p=0.1, inplace=False)
    (6): Linear(in_features=64, out_features=1, bias=True)
  )
)
2026-03-30 21:07:58,345 INFO: 模型保存路径: checkpoints/cnn_best_work.pt
2026-03-30 21:07:58,345 INFO: 配置保存路径: /home/ssy/Siamese-MicroPerf/configs/cnn_best_work.json
2026-03-30 21:07:58,345 INFO: 
开始训练 (180 epochs, Huber δ=0.05, patience=50)...
2026-03-30 21:07:58,345 INFO: Epoch   Train Loss   Val Loss    Val MAE    LR          Status
2026-03-30 21:07:58,346 INFO: ----------------------------------------------------------------------
…
